…
Shape of x_val_flavio is:  (22400, 80)
Shape of y_train_flavio is:  (89600,)
Shape of y_val_flavio is:  (22400,)
=====   Model preparation...
    Time elapsed since start: 0.73 s
==== Starting with Model  modelsmall
    Time elapsed since start: 0.73 s
Model: "modelsmall"
_________________________________________________________________
Layer (type)                 Output Shape              Param #   
=================================================================
input_1 (InputLayer)         [(None, 80)]              0         
_________________________________________________________________
dense (Dense)                (None, 10)                810       
_________________________________________________________________
dense1 (Dense)               (None, 50)                550       
_________________________________________________________________
dropout (Dropout)            (None, 50)                0         
_________________________________________________________________
dense2 (Dense)               (None, 50)                2550      
_________________________________________________________________
dropout_1 (Dropout)          (None, 50)                0         
_________________________________________________________________
dense_1 (Dense)              (None, 1)                 51        
=================================================================
Total params: 3,961
Trainable params: 3,961
Non-trainable params: 0
_________________________________________________________________
    Time elapsed since start: 0.82 s
Train on 89600 samples, validate on 22400 samples
Epoch 1/50
89600/89600 - 2s - loss: 0.0943 - precision: 0.6998 - recall: 0.3034 - val_loss: 0.0552 - val_precision: 0.7213 - val_recall: 0.6746
…
89600/89600 - 2s - loss: 0.0182 - precision: 0.9201 - recall: 0.8942 - val_loss: 0.0269 - val_precision: 0.8541 - val_recall: 0.8466
F1 Score on Validation: 0.8503443957420163
==== Finished...  modelsmall
    Time elapsed since start: 87.62 s
==== Starting with Model  modelstd
    Time elapsed since start: 87.62 s
Model: "modelstd"
_________________________________________________________________
Layer (type)                 Output Shape              Param #   
=================================================================
input_2 (InputLayer)         [(None, 80)]              0         
_________________________________________________________________
dense_2 (Dense)              (None, 10)                810       
_________________________________________________________________
dense1 (Dense)               (None, 100)               1100      
_________________________________________________________________
dropout_2 (Dropout)          (None, 100)               0         
_________________________________________________________________
dense2 (Dense)               (None, 200)               20200     
_________________________________________________________________
dropout_3 (Dropout)          (None, 200)               0         
_________________________________________________________________
dense3 (Dense)               (None, 100)               20100     
_________________________________________________________________
dropout_4 (Dropout)          (None, 100)               0         
_________________________________________________________________
dense_3 (Dense)              (None, 1)                 101       
=================================================================
Total params: 42,311
Trainable params: 42,311
Non-trainable params: 0
_________________________________________________________________
    Time elapsed since start: 87.72 s
Train on 89600 samples, validate on 22400 samples
Epoch 1/50
89600/89600 - 3s - loss: 0.0837 - precision_1: 0.6872 - recall_1: 0.4090 - val_loss: 0.0547 - val_precision_1: 0.6944 - val_recall_1: 0.6970
…
89600/89600 - 3s - loss: 0.0175 - precision_1: 0.9204 - recall_1: 0.8948 - val_loss: 0.0307 - val_precision_1: 0.8733 - val_recall_1: 0.8766
F1 Score on Validation: 0.8749222153080274
==== Finished...  modelstd
    Time elapsed since start: 231.61 s
==== Starting with Model  modeldeep
    Time elapsed since start: 231.61 s
Model: "modeldeep"
_________________________________________________________________
Layer (type)                 Output Shape              Param #   
=================================================================
input_3 (InputLayer)         [(None, 80)]              0         
_________________________________________________________________
dense_4 (Dense)              (None, 10)                810       
_________________________________________________________________
dense1 (Dense)               (None, 10)                110       
_________________________________________________________________
dropout_5 (Dropout)          (None, 10)                0         
_________________________________________________________________
dense21 (Dense)              (None, 20)                220       
_________________________________________________________________
dropout_6 (Dropout)          (None, 20)                0         
_________________________________________________________________
dense22 (Dense)              (None, 20)                420       
_________________________________________________________________
dropout_7 (Dropout)          (None, 20)                0         
_________________________________________________________________
dense23 (Dense)              (None, 20)                420       
_________________________________________________________________
dropout_8 (Dropout)          (None, 20)                0         
_________________________________________________________________
dense24 (Dense)              (None, 20)                420       
_________________________________________________________________
dropout_9 (Dropout)          (None, 20)                0         
_________________________________________________________________
dense25 (Dense)              (None, 20)                420       
_________________________________________________________________
dropout_10 (Dropout)         (None, 20)                0         
_________________________________________________________________
dense3 (Dense)               (None, 10)                210       
_________________________________________________________________
dropout_11 (Dropout)         (None, 10)                0         
_________________________________________________________________
dense_5 (Dense)              (None, 1)                 11        
=================================================================
Total params: 3,041
Trainable params: 3,041
Non-trainable params: 0
_________________________________________________________________
    Time elapsed since start: 231.80 s
Train on 89600 samples, validate on 22400 samples
Epoch 1/50
89600/89600 - 3s - loss: 0.1245 - precision_2: 0.0149 - recall_2: 5.8634e-04 - val_loss: 0.0676 - val_precision_2: 0.0000e+00 - val_recall_2: 0.0000e+00
…
89600/89600 - 2s - loss: 0.0264 - precision_2: 0.8515 - recall_2: 0.8912 - val_loss: 0.0338 - val_precision_2: 0.7286 - val_recall_2: 0.9439
F1 Score on Validation: 0.8223791417707768
==== Finished...  modeldeep
    Time elapsed since start: 350.03 s
==== Starting with Model  modelpyramid
    Time elapsed since start: 350.03 s
Model: "modelpyramid"
_________________________________________________________________
Layer (type)                 Output Shape              Param #   
=================================================================
input_4 (InputLayer)         [(None, 80)]              0         
_________________________________________________________________
dense_6 (Dense)              (None, 10)                810       
_________________________________________________________________
dense1 (Dense)               (None, 10)                110       
_________________________________________________________________
dropout_12 (Dropout)         (None, 10)                0         
_________________________________________________________________
dense2 (Dense)               (None, 100)               1100      
_________________________________________________________________
dropout_13 (Dropout)         (None, 100)               0         
_________________________________________________________________
dense6 (Dense)               (None, 1000)              101000    
_________________________________________________________________
dropout_14 (Dropout)         (None, 1000)              0         
_________________________________________________________________
dense3 (Dense)               (None, 100)               100100    
_________________________________________________________________
dropout_15 (Dropout)         (None, 100)               0         
_________________________________________________________________
dense4 (Dense)               (None, 10)                1010      
_________________________________________________________________
dropout_16 (Dropout)         (None, 10)                0         
_________________________________________________________________
dense_7 (Dense)              (None, 1)                 11        
=================================================================
Total params: 204,141
Trainable params: 204,141
Non-trainable params: 0
_________________________________________________________________
    Time elapsed since start: 350.24 s
Train on 89600 samples, validate on 22400 samples
Epoch 1/50
89600/89600 - 6s - loss: 0.0987 - precision_3: 0.6687 - recall_3: 0.3178 - val_loss: 0.0584 - val_precision_3: 0.7543 - val_recall_3: 0.5474
…
